# VGG 16-layer network convolutional finetuning
# Network modified to have smaller receptive field (128 pixels)
# and smaller stride (8 pixels) when run in convolutional mode.
#
# In this model we also change max pooling size in the first 4 layers
# from 2 to 3 while retaining stride = 2
# which makes it easier to exactly align responses at different layers.
#
# For alignment to work, we set (we choose 32x so as to be able to evaluate
# the model for all different subsampling sizes):
# (1) input dimension equal to
# $n = 32 * k - 31$, e.g., 321 (for k = 11)
# Dimension after pooling w. subsampling:
# (16 * k - 15); (8 * k - 7); (4 * k - 3); (2 * k - 1); (k).
# For k = 11, these translate to
#           161;          81;          41;          21;  11
# 

name: "${NET_ID}"

layer {
  name: "data"
  type: "ImageSegData"
  top: "data"
  top: "label"
  image_data_param {
    root_folder: "${DATA_ROOT}"
    source: "${EXP}/list/${TRAIN_SET}.txt"
    label_type: PIXEL
    batch_size: 1
    shuffle: true
  }
  transform_param {
    mean_value: 104.008
    mean_value: 116.669
    mean_value: 122.675
    crop_size: 321
    mirror: true
  }
  include: { phase: TRAIN }
}

layer {
  bottom: "label"
  top: "label_shrink2"
  name: "label_shrink2"
  type: "Interp"
  interp_param {
    shrink_factor: 2
    pad_beg: 0
    pad_end: 0
  }
}
layer {
  bottom: "label_shrink2"
  top: "label_shrink4"
  name: "label_shrink4"
  type: "Interp"
  interp_param {
    shrink_factor: 2
    pad_beg: 0
    pad_end: 0
  }
}
layer {
  bottom: "label_shrink4"
  top: "label_shrink8"
  name: "label_shrink8"
  type: "Interp"
  interp_param {
    shrink_factor: 2
    pad_beg: 0
    pad_end: 0
  }
}

### NETWORK ###

layer {
  bottom: "data"
  top: "conv1_1"
  name: "conv1_1"
  type: "Convolution"
  param {
    lr_mult: 1
    decay_mult: 1
  }
  param {
    lr_mult: 2
    decay_mult: 0
  }
  convolution_param {
    num_output: 64
    pad: 1
    kernel_size: 3
  }
}
layer {
  bottom: "conv1_1"
  top: "conv1_1"
  name: "relu1_1"
  type: "ReLU"
}
layer {
  bottom: "conv1_1"
  top: "conv1_2"
  name: "conv1_2"
  type: "Convolution"
  param {
    lr_mult: 1
    decay_mult: 1
  }
  param {
    lr_mult: 2
    decay_mult: 0
  }
  convolution_param {
    num_output: 64
    pad: 1
    kernel_size: 3
  }
}
layer {
  bottom: "conv1_2"
  top: "conv1_2"
  name: "relu1_2"
  type: "ReLU"
}
layer {
  bottom: "conv1_2"
  top: "pool1"
  name: "pool1"
  type: "Pooling"
  pooling_param {
    pool: MAX
    kernel_size: 3
    stride: 2
    pad: 1
  }
}
layer {
  bottom: "pool1"
  top: "conv2_1"
  name: "conv2_1"
  type: "Convolution"
  param {
    lr_mult: 1
    decay_mult: 1
  }
  param {
    lr_mult: 2
    decay_mult: 0
  }
  convolution_param {
    num_output: 128
    pad: 1
    kernel_size: 3
  }
}
layer {
  bottom: "conv2_1"
  top: "conv2_1"
  name: "relu2_1"
  type: "ReLU"
}
layer {
  bottom: "conv2_1"
  top: "conv2_2"
  name: "conv2_2"
  type: "Convolution"
  param {
    lr_mult: 1
    decay_mult: 1
  }
  param {
    lr_mult: 2
    decay_mult: 0
  }
  convolution_param {
    num_output: 128
    pad: 1
    kernel_size: 3
  }
}
layer {
  bottom: "conv2_2"
  top: "conv2_2"
  name: "relu2_2"
  type: "ReLU"
}
layer {
  bottom: "conv2_2"
  top: "pool2"
  name: "pool2"
  type: "Pooling"
  pooling_param {
    pool: MAX
    kernel_size: 3
    stride: 2
    pad: 1
  }
}
layer {
  bottom: "pool2"
  top: "conv3_1"
  name: "conv3_1"
  type: "Convolution"
  param {
    lr_mult: 1
    decay_mult: 1
  }
  param {
    lr_mult: 2
    decay_mult: 0
  }
  convolution_param {
    num_output: 256
    pad: 1
    kernel_size: 3
  }
}
layer {
  bottom: "conv3_1"
  top: "conv3_1"
  name: "relu3_1"
  type: "ReLU"
}
layer {
  bottom: "conv3_1"
  top: "conv3_2"
  name: "conv3_2"
  type: "Convolution"
  param {
    lr_mult: 1
    decay_mult: 1
  }
  param {
    lr_mult: 2
    decay_mult: 0
  }
  convolution_param {
    num_output: 256
    pad: 1
    kernel_size: 3
  }
}
layer {
  bottom: "conv3_2"
  top: "conv3_2"
  name: "relu3_2"
  type: "ReLU"
}
layer {
  bottom: "conv3_2"
  top: "conv3_3"
  name: "conv3_3"
  type: "Convolution"
  param {
    lr_mult: 1
    decay_mult: 1
  }
  param {
    lr_mult: 2
    decay_mult: 0
  }
  convolution_param {
    num_output: 256
    pad: 1
    kernel_size: 3
  }
}
layer {
  bottom: "conv3_3"
  top: "conv3_3"
  name: "relu3_3"
  type: "ReLU"
}
layer {
  bottom: "conv3_3"
  top: "pool3"
  name: "pool3"
  type: "Pooling"
  pooling_param {
    pool: MAX
    kernel_size: 3
    stride: 2
    pad: 1
  }
}
layer {
  bottom: "pool3"
  top: "conv4_1"
  name: "conv4_1"
  type: "Convolution"
  param {
    lr_mult: 1
    decay_mult: 1
  }
  param {
    lr_mult: 2
    decay_mult: 0
  }
  convolution_param {
    num_output: 512
    pad: 1
    kernel_size: 3
  }
}
layer {
  bottom: "conv4_1"
  top: "conv4_1"
  name: "relu4_1"
  type: "ReLU"
}
layer {
  bottom: "conv4_1"
  top: "conv4_2"
  name: "conv4_2"
  type: "Convolution"
  param {
    lr_mult: 1
    decay_mult: 1
  }
  param {
    lr_mult: 2
    decay_mult: 0
  }
  convolution_param {
    num_output: 512
    pad: 1
    kernel_size: 3
  }
}
layer {
  bottom: "conv4_2"
  top: "conv4_2"
  name: "relu4_2"
  type: "ReLU"
}
layer {
  bottom: "conv4_2"
  top: "conv4_3"
  name: "conv4_3"
  type: "Convolution"
  param {
    lr_mult: 1
    decay_mult: 1
  }
  param {
    lr_mult: 2
    decay_mult: 0
  }
  convolution_param {
    num_output: 512
    pad: 1
    kernel_size: 3
  }
}
layer {
  bottom: "conv4_3"
  top: "conv4_3"
  name: "relu4_3"
  type: "ReLU"
}
layer {
  bottom: "conv4_3"
  top: "pool4"
  name: "pool4"
  type: "Pooling"
  pooling_param {
    pool: MAX
    kernel_size: 3
    pad: 1
    stride: 1
  }
}
layer {
  bottom: "pool4"
  top: "conv5_1"
  name: "conv5_1"
  type: "Convolution"
  param {
    lr_mult: 1
    decay_mult: 1
  }
  param {
    lr_mult: 2
    decay_mult: 0
  }
  convolution_param {
    num_output: 512
    #pad: 1
    pad: 2
    hole: 2
    kernel_size: 3
  }
}
layer {
  bottom: "conv5_1"
  top: "conv5_1"
  name: "relu5_1"
  type: "ReLU"
}
layer {
  bottom: "conv5_1"
  top: "conv5_2"
  name: "conv5_2"
  type: "Convolution"
  param {
    lr_mult: 1
    decay_mult: 1
  }
  param {
    lr_mult: 2
    decay_mult: 0
  }
  convolution_param {
    num_output: 512
    #pad: 1
    pad: 2
    hole: 2
    kernel_size: 3
  }
}
layer {
  bottom: "conv5_2"
  top: "conv5_2"
  name: "relu5_2"
  type: "ReLU"
}
layer {
  bottom: "conv5_2"
  top: "conv5_3"
  name: "conv5_3"
  type: "Convolution"
  param {
    lr_mult: 1
    decay_mult: 1
  }
  param {
    lr_mult: 2
    decay_mult: 0
  }
  convolution_param {
    num_output: 512
    #pad: 1
    pad: 2
    hole: 2
    kernel_size: 3
  }
}
layer {
  bottom: "conv5_3"
  top: "conv5_3"
  name: "relu5_3"
  type: "ReLU"
}
layer {
  bottom: "conv5_3"
  top: "pool5"
  name: "pool5"
  type: "Pooling"
  pooling_param {
    pool: MAX
    #kernel_size: 2
    #stride: 2
    kernel_size: 3
    stride: 1
    pad: 1
  }
}

layer {
  bottom: "pool5"
  top: "fc6"
  name: "fc6"
  type: "Convolution"
  param {
    lr_mult: 1
    decay_mult: 1
  }
  param {
    lr_mult: 2
    decay_mult: 0
  }
  convolution_param {
    num_output: 1024
    pad: 12
    hole: 12
    kernel_size: 3
  }
}
layer {
  bottom: "fc6"
  top: "fc6"
  name: "relu6"
  type: "ReLU"
}
layer {
  bottom: "fc6"
  top: "fc6"
  name: "drop6"
  type: "Dropout"
  dropout_param {
    dropout_ratio: 0.5
  }
}
layer {
  bottom: "fc6"
  top: "fc7"
  name: "fc7"
  type: "Convolution"
  param {
    lr_mult: 1
    decay_mult: 1
  }
  param {
    lr_mult: 2
    decay_mult: 0
  }
  convolution_param {
    num_output: 1024
    kernel_size: 1
  }
}
layer {
  bottom: "fc7"
  top: "fc7"
  name: "relu7"
  type: "ReLU"
}
layer {
  bottom: "fc7"
  top: "fc7"
  name: "drop7"
  type: "Dropout"
  dropout_param {
    dropout_ratio: 0.5
  }
}

# # -------------- layer 9 ----------------
layer {
  bottom: "fc7"
  top: "fc7_upsample"
  name: "fc7_upsample"
  type: "Interp"
  interp_param {
    zoom_factor: 2
  }
}

# layer {
#   bottom: "fc7"
#   top: "fc7_upsample"
#   name: "fc7_upsample"
#   type: "Upsample"
#   upsample_param {
#     upsample_ratio: 2
#   }
# }

layer {
  bottom: "conv3_3"
  bottom: "fc7_upsample"
  top: "concat9"
  name: "concat9"
  type: "Concat"
}
layer {
  bottom: "concat9"
  top: "conv9_1"
  name: "conv9_1"
  type: "Convolution"
  param {
    lr_mult: 10
    decay_mult: 1
  }
  param {
    lr_mult: 20
    decay_mult: 0
  }
  convolution_param {
    num_output: 256
    pad: 1
    kernel_size: 3
    weight_filler {
      type: "gaussian"
      std: 0.0001
    }
    bias_filler {
      type: "constant"
      value: 0
    }
  }
}

layer {
  bottom: "conv9_1"
  top: "conv9_1"
  name: "relu9"
  type: "ReLU"
}

layer {
  bottom: "conv9_1"
  top: "conv9_1"
  name: "drop9_1"
  type: "Dropout"
  dropout_param {
    dropout_ratio: 0.5
  }
}

# # -----------------layer 10 -----------------
# layer {
#   bottom: "conv9_1"
#   top: "conv9_upsample"
#   name: "conv9_upsample"
#   type: "Interp"
#   interp_param {
#     zoom_factor: 2
#   }
# }
# layer {
#   bottom: "conv2_2"
#   bottom: "conv9_upsample"
#   top: "concat10"
#   name: "concat10"
#   type: "Concat"
# }
# layer {
#   bottom: "concat10"
#   top: "conv10_1"
#   name: "conv10_1"
#   type: "Convolution"
#   param {
#     lr_mult: 10
#     decay_mult: 1
#   }
#   param {
#     lr_mult: 20
#     decay_mult: 0
#   }
#   convolution_param {
#     num_output: 128
#     pad: 1
#     kernel_size: 3
#     weight_filler {
#       type: "xavier"
#     }
#     bias_filler {
#       type: "constant"
#       value: 0
#     }
#   }
# }
# layer {
#   bottom: "conv10_1"
#   top: "conv10_1"
#   name: "relu10"
#   type: "ReLU"
# }
# layer {
#   bottom: "conv10_1"
#   top: "conv10_1"
#   name: "drop10_1"
#   type: "Dropout"
#   dropout_param {
#     dropout_ratio: 0.5
#   }
# }
# # ----------------- layer 11 -----------------
# layer {
#   bottom: "conv10_1"
#   top: "conv10_upsample"
#   name: "conv10_upsample"
#   type: "Interp"
#   interp_param {
#     zoom_factor: 2
#   }
# }
# layer {
#   bottom: "conv1_2"
#   bottom: "conv10_upsample"
#   top: "concat11"
#   name: "concat11"
#   type: "Concat"
# }
# layer {
#   bottom: "concat11"
#   top: "conv11_1"
#   name: "conv11_1"
#   type: "Convolution"
#   param {
#     lr_mult: 10
#     decay_mult: 1
#   }
#   param {
#     lr_mult: 20
#     decay_mult: 0
#   }
#   convolution_param {
#     num_output: 64
#     pad: 1
#     kernel_size: 3
#     weight_filler {
#       type: "xavier"
#     }
#     bias_filler {
#       type: "constant"
#       value: 0
#     }
#   }
# }
# layer {
#   bottom: "conv11_1"
#   top: "conv11_1"
#   name: "relu11"
#   type: "ReLU"
# }
# layer {
#   bottom: "conv11_1"
#   top: "conv11_1"
#   name: "drop11_1"
#   type: "Dropout"
#   dropout_param {
#     dropout_ratio: 0.5
#   }
# }

# ---------------  outputs ----------------
# --------------- with 1/8 resolution as input -------------
layer {
  bottom: "fc7"
  top: "fc8_${EXP}"
  name: "fc8_${EXP}"
  type: "Convolution"
  param {
    lr_mult: 5
    decay_mult: 1
  }
  param {
    lr_mult: 10
    decay_mult: 0
  }
  convolution_param {
    num_output: ${NUM_LABELS}
    kernel_size: 1
    weight_filler {
      type: "gaussian"
      std: 0.02
    }
    bias_filler {
      type: "constant"
      value: 0
    }
  }
}

# --------------- with 1/4 resolution as input -------------
layer {
  bottom: "conv9_1"
  top: "fc9_${EXP}"
  name: "fc9_${EXP}"
  type: "Convolution"
  param {
    lr_mult: 10
    decay_mult: 1
  }
  param {
    lr_mult: 20
    decay_mult: 0
  }
  convolution_param {
    num_output: ${NUM_LABELS}
    kernel_size: 1
    weight_filler {
      type: "gaussian"
	std: 0.025
    }
    bias_filler {
      type: "constant"
      value: 0
    }
  }
}

# --------------- with 1/2 resolution as input -------------
# layer {
#   bottom: "conv10_1"
#   top: "fc10_${EXP}"
#   name: "fc10_${EXP}"
#   type: "Convolution"
#   param {
#     lr_mult: 10
#     decay_mult: 1
#   }
#   param {
#     lr_mult: 20
#     decay_mult: 0
#   }
#   convolution_param {
#     num_output: ${NUM_LABELS}
#     kernel_size: 1
#     weight_filler {
#       type: "gaussian"
#       std: 0.1
#     }
#     bias_filler {
#       type: "constant"
#       value: 0
#     }
#   }
# }

# --------------- with same resolution as input --------------

# layer {
#   bottom: "conv11_1"
#   top: "fc11_${EXP}"
#   name: "fc11_${EXP}"
#   type: "Convolution"
#   param {
#     lr_mult: 10
#     decay_mult: 1
#   }
#   param {
#     lr_mult: 20
#     decay_mult: 0
#   }
#   convolution_param {
#     num_output: ${NUM_LABELS}
#     kernel_size: 1
#     weight_filler {
#       type: "xavier"
#     }
#     bias_filler {
#       type: "constant"
#       value: 0
#     }
#   }
# }

# ----------------- losses ---------------------
# ----------------- 1/8 ----------------------
layer {
  name: "loss_shrink8"
  type: "SoftmaxWithLoss"
  bottom: "fc8_${EXP}"
  bottom: "label_shrink8"
  loss_param {
    ignore_label: 255
  }
  include: { phase: TRAIN }
}
layer {
  name: "accuracy_shrink8"
  type: "SegAccuracy"
  bottom: "fc8_${EXP}"
  bottom: "label_shrink8"
  top: "accuracy_shrink8"
  seg_accuracy_param {
    ignore_label: 255
  } 
}

# ----------------- 1/4 --------------------
layer {
  name: "loss_shrink4"
  type: "SoftmaxWithLoss"
  bottom: "fc9_${EXP}"
  bottom: "label_shrink4"
  loss_param {
    ignore_label: 255
  }
  include: { phase: TRAIN }
}
layer {
  name: "accuracy_shrink4"
  type: "SegAccuracy"
  bottom: "fc9_${EXP}"
  bottom: "label_shrink4"
  top: "accuracy_shrink4"
  seg_accuracy_param {
    ignore_label: 255
  } 
}

# ----------------- 1/2 --------------------
# layer {
#   name: "loss_shrink2"
#   type: "SoftmaxWithLoss"
#   bottom: "fc10_${EXP}"
#   bottom: "label_shrink2"
#   loss_param {
#     ignore_label: 255
#   }
#   include: { phase: TRAIN }
# }
# layer {
#   name: "accuracy_shrink2"
#   type: "SegAccuracy"
#   bottom: "fc10_${EXP}"
#   bottom: "label_shrink2"
#   top: "accuracy_shrink2"
#   seg_accuracy_param {
#     ignore_label: 255
#   } 
# }

# ----------------- 1 --------------------
# layer {
#   name: "loss"
#   type: "SoftmaxWithLoss"
#   bottom: "fc11_${EXP}"
#   bottom: "label"
#   loss_param {
#     ignore_label: 255
#   }
#   include: { phase: TRAIN }
# }
# layer {
#   name: "accuracy"
#   type: "SegAccuracy"
#   bottom: "fc11_${EXP}"
#   bottom: "label"
#   top: "accuracy"
#   seg_accuracy_param {
#     ignore_label: 255
#   } 
# }
