# VGG 16-layer network convolutional finetuning
# Network modified to have smaller receptive field (128 pixels)
# and smaller stride (8 pixels) when run in convolutional mode.
#
# In this model we also change max pooling size in the first 4 layers
# from 2 to 3 while retaining stride = 2
# which makes it easier to exactly align responses at different layers.
#
name: "vgg128_noup_pool3_29M_largewin"

layer {
  name: "data"
  type: "ImageSegData"
  top: "data"
  image_data_param {
    root_folder: "/home/lcchen/workspace/rmt/data/pascal/VOCdevkit/VOC2012"
    source: "voc10_part/list/val.txt"
    batch_size: 1
    label_type: NONE
  }
  transform_param {
    mean_value: 104.008
    mean_value: 116.669
    mean_value: 122.675
    crop_size: 513
    mirror: false
  }
  include: { phase: TEST }
}

### NETWORK ###

layer {
  bottom: "data"
  top: "conv1_1"
  name: "conv1_1"
  type: "Convolution"
  convolution_param {
    num_output: 64
    pad: 1
    kernel_size: 3
  }
}
layer {
  bottom: "conv1_1"
  top: "conv1_1"
  name: "relu1_1"
  type: "ReLU"
}
layer {
  bottom: "conv1_1"
  top: "conv1_2"
  name: "conv1_2"
  type: "Convolution"
  convolution_param {
    num_output: 64
    pad: 1
    kernel_size: 3
  }
}
layer {
  bottom: "conv1_2"
  top: "conv1_2"
  name: "relu1_2"
  type: "ReLU"
}
layer {
  bottom: "conv1_2"
  top: "pool1"
  name: "pool1"
  type: "Pooling"
  pooling_param {
    pool: MAX
    kernel_size: 3
    stride: 2
    pad: 1
  }
}
layer {
  bottom: "pool1"
  top: "conv2_1"
  name: "conv2_1"
  type: "Convolution"
  convolution_param {
    num_output: 128
    pad: 1
    kernel_size: 3
  }
}
layer {
  bottom: "conv2_1"
  top: "conv2_1"
  name: "relu2_1"
  type: "ReLU"
}
layer {
  bottom: "conv2_1"
  top: "conv2_2"
  name: "conv2_2"
  type: "Convolution"
  convolution_param {
    num_output: 128
    pad: 1
    kernel_size: 3
  }
}
layer {
  bottom: "conv2_2"
  top: "conv2_2"
  name: "relu2_2"
  type: "ReLU"
}
layer {
  bottom: "conv2_2"
  top: "pool2"
  name: "pool2"
  type: "Pooling"
  pooling_param {
    pool: MAX
    kernel_size: 3
    stride: 2
    pad: 1
  }
}
layer {
  bottom: "pool2"
  top: "conv3_1"
  name: "conv3_1"
  type: "Convolution"
  convolution_param {
    num_output: 256
    pad: 1
    kernel_size: 3
  }
}
layer {
  bottom: "conv3_1"
  top: "conv3_1"
  name: "relu3_1"
  type: "ReLU"
}
layer {
  bottom: "conv3_1"
  top: "conv3_2"
  name: "conv3_2"
  type: "Convolution"
  convolution_param {
    num_output: 256
    pad: 1
    kernel_size: 3
  }
}
layer {
  bottom: "conv3_2"
  top: "conv3_2"
  name: "relu3_2"
  type: "ReLU"
}
layer {
  bottom: "conv3_2"
  top: "conv3_3"
  name: "conv3_3"
  type: "Convolution"
  convolution_param {
    num_output: 256
    pad: 1
    kernel_size: 3
  }
}
layer {
  bottom: "conv3_3"
  top: "conv3_3"
  name: "relu3_3"
  type: "ReLU"
}
layer {
  bottom: "conv3_3"
  top: "pool3"
  name: "pool3"
  type: "Pooling"
  pooling_param {
    pool: MAX
    kernel_size: 3
    stride: 2
    pad: 1
  }
}
layer {
  bottom: "pool3"
  top: "conv4_1"
  name: "conv4_1"
  type: "Convolution"
  convolution_param {
    num_output: 512
    pad: 1
    kernel_size: 3
  }
}
layer {
  bottom: "conv4_1"
  top: "conv4_1"
  name: "relu4_1"
  type: "ReLU"
}
layer {
  bottom: "conv4_1"
  top: "conv4_2"
  name: "conv4_2"
  type: "Convolution"
  convolution_param {
    num_output: 512
    pad: 1
    kernel_size: 3
  }
}
layer {
  bottom: "conv4_2"
  top: "conv4_2"
  name: "relu4_2"
  type: "ReLU"
}
layer {
  bottom: "conv4_2"
  top: "conv4_3"
  name: "conv4_3"
  type: "Convolution"
  convolution_param {
    num_output: 512
    pad: 1
    kernel_size: 3
  }
}
layer {
  bottom: "conv4_3"
  top: "conv4_3"
  name: "relu4_3"
  type: "ReLU"
}
layer {
  bottom: "conv4_3"
  top: "pool4"
  name: "pool4"
  type: "Pooling"
  pooling_param {
    pool: MAX
    kernel_size: 3
    pad: 1
    #stride: 2
    stride: 1
  }
}
layer {
  bottom: "pool4"
  top: "conv5_1"
  name: "conv5_1"
  type: "Convolution"
  convolution_param {
    num_output: 512
    #pad: 1
    pad: 2
    hole: 2
    kernel_size: 3
  }
}
layer {
  bottom: "conv5_1"
  top: "conv5_1"
  name: "relu5_1"
  type: "ReLU"
}
layer {
  bottom: "conv5_1"
  top: "conv5_2"
  name: "conv5_2"
  type: "Convolution"
  convolution_param {
    num_output: 512
    #pad: 1
    pad: 2
    hole: 2
    kernel_size: 3
  }
}
layer {
  bottom: "conv5_2"
  top: "conv5_2"
  name: "relu5_2"
  type: "ReLU"
}
layer {
  bottom: "conv5_2"
  top: "conv5_3"
  name: "conv5_3"
  type: "Convolution"
  convolution_param {
    num_output: 512
    #pad: 1
    pad: 2
    hole: 2
    kernel_size: 3
  }
}
layer {
  bottom: "conv5_3"
  top: "conv5_3"
  name: "relu5_3"
  type: "ReLU"
}
layer {
  bottom: "conv5_3"
  top: "pool5"
  name: "pool5"
  type: "Pooling"
  pooling_param {
    pool: MAX
    #kernel_size: 2
    #stride: 2
    kernel_size: 3
    stride: 1
    pad: 1
  }
}

layer {
  bottom: "pool5"
  top: "fc6"
  name: "fc6"
  type: "Convolution"
  convolution_param {
    num_output: 1024
    pad: 12
    hole: 6
    kernel_size: 5
  }
}
layer {
  bottom: "fc6"
  top: "fc6"
  name: "relu6"
  type: "ReLU"
}
layer {
  bottom: "fc6"
  top: "fc6"
  name: "drop6"
  type: "Dropout"
  dropout_param {
    dropout_ratio: 0.5
  }
}
layer {
  bottom: "fc6"
  top: "fc7"
  name: "fc7"
  type: "Convolution"
  convolution_param {
    num_output: 1024
    kernel_size: 1
  }
}
layer {
  bottom: "fc7"
  top: "fc7"
  name: "relu7"
  type: "ReLU"
}
layer {
  bottom: "fc7"
  top: "fc7"
  name: "drop7"
  type: "Dropout"
  dropout_param {
    dropout_ratio: 0.5
  }
}
layer {
  bottom: "fc7"
  top: "fc8_voc10_part"
  name: "fc8_voc10_part"
  type: "Convolution"
  convolution_param {
    num_output: 5
    kernel_size: 1
  }
}
layer {
  bottom: "fc8_voc10_part"
  top: "fc8_interp"
  name: "fc8_interp"
  type: "Interp"
  interp_param {
    zoom_factor: 8
  }
}

layer {
  name: "fc8_mat"
  type: "MatWrite"
  bottom: "fc8_interp"
  mat_write_param {
    prefix: "voc10_part/features/vgg128_noup_pool3_29M_largewin/val/fc8/"
    source: "voc10_part/list/val_id.txt"
    strip: 0
    period: 1
  }
  include: { phase: TEST }
}


# JAY EDIT THIS LAYER
#layer {
#  bottom: "fc8_interp"
#  bottom: "data_dim"
#  bottom: "data"
#   top: "crf_inf"
#   name: "crf"
#   type: "DenseCRF"
#   dense_crf_param { 
#     max_iter: 10
#     pos_w: 3
#     pos_xy_std: 3
#     bi_w: 4
#     bi_xy_std: 121
#     bi_rgb_std: 5
#   }
#   include: { phase: TEST }
# }

# layer {
#   name: "crf_mat"
#   type: "MatWrite"
#   bottom: "crf_inf"
#   mat_write_param {
#     prefix: "voc10_part/features/vgg128_noup_pool3_29M_largewin/val/crf/"
#     source: "voc10_part/list/val_id.txt"
#     strip: 0
#     period: 1
#   }
#   include: { phase: TEST }
# }

# layer {
#   bottom: "label"
#   name: "silence"
#   type: "Silence"
#   include: { phase: TEST }
# }

